{"format": "torch", "nodes": [{"name": "conv_blocks.0", "id": 139679411626896, "class_name": "cnn_layer(\n  (conv): Sequential(\n    (0): Conv2d(2, 64, kernel_size=(3, 3), stride=(1, 1), padding=(1, 1))\n    (1): ReLU(inplace=True)\n    (2): Conv2d(64, 64, kernel_size=(3, 3), stride=(1, 1), padding=(1, 1))\n    (3): ReLU(inplace=True)\n    (4): Conv2d(64, 64, kernel_size=(3, 3), stride=(1, 1), padding=(1, 1))\n    (5): ReLU(inplace=True)\n    (6): Conv2d(64, 64, kernel_size=(3, 3), stride=(1, 1), padding=(1, 1))\n    (7): ReLU(inplace=True)\n    (8): Conv2d(64, 2, kernel_size=(3, 3), stride=(1, 1), padding=(1, 1))\n  )\n)", "parameters": [["conv.0.weight", [64, 2, 3, 3]], ["conv.0.bias", [64]], ["conv.2.weight", [64, 64, 3, 3]], ["conv.2.bias", [64]], ["conv.4.weight", [64, 64, 3, 3]], ["conv.4.bias", [64]], ["conv.6.weight", [64, 64, 3, 3]], ["conv.6.bias", [64]], ["conv.8.weight", [2, 64, 3, 3]], ["conv.8.bias", [2]]], "output_shape": [[1, 218, 170, 2]], "num_parameters": [1152, 64, 36864, 64, 36864, 64, 36864, 64, 1152, 2]}, {"name": "conv_blocks.1", "id": 139679411678736, "class_name": "cnn_layer(\n  (conv): Sequential(\n    (0): Conv2d(2, 64, kernel_size=(3, 3), stride=(1, 1), padding=(1, 1))\n    (1): ReLU(inplace=True)\n    (2): Conv2d(64, 64, kernel_size=(3, 3), stride=(1, 1), padding=(1, 1))\n    (3): ReLU(inplace=True)\n    (4): Conv2d(64, 64, kernel_size=(3, 3), stride=(1, 1), padding=(1, 1))\n    (5): ReLU(inplace=True)\n    (6): Conv2d(64, 64, kernel_size=(3, 3), stride=(1, 1), padding=(1, 1))\n    (7): ReLU(inplace=True)\n    (8): Conv2d(64, 2, kernel_size=(3, 3), stride=(1, 1), padding=(1, 1))\n  )\n)", "parameters": [["conv.0.weight", [64, 2, 3, 3]], ["conv.0.bias", [64]], ["conv.2.weight", [64, 64, 3, 3]], ["conv.2.bias", [64]], ["conv.4.weight", [64, 64, 3, 3]], ["conv.4.bias", [64]], ["conv.6.weight", [64, 64, 3, 3]], ["conv.6.bias", [64]], ["conv.8.weight", [2, 64, 3, 3]], ["conv.8.bias", [2]]], "output_shape": [[1, 218, 170, 2]], "num_parameters": [1152, 64, 36864, 64, 36864, 64, 36864, 64, 1152, 2]}, {"name": "conv_blocks.2", "id": 139679386071840, "class_name": "cnn_layer(\n  (conv): Sequential(\n    (0): Conv2d(2, 64, kernel_size=(3, 3), stride=(1, 1), padding=(1, 1))\n    (1): ReLU(inplace=True)\n    (2): Conv2d(64, 64, kernel_size=(3, 3), stride=(1, 1), padding=(1, 1))\n    (3): ReLU(inplace=True)\n    (4): Conv2d(64, 64, kernel_size=(3, 3), stride=(1, 1), padding=(1, 1))\n    (5): ReLU(inplace=True)\n    (6): Conv2d(64, 64, kernel_size=(3, 3), stride=(1, 1), padding=(1, 1))\n    (7): ReLU(inplace=True)\n    (8): Conv2d(64, 2, kernel_size=(3, 3), stride=(1, 1), padding=(1, 1))\n  )\n)", "parameters": [["conv.0.weight", [64, 2, 3, 3]], ["conv.0.bias", [64]], ["conv.2.weight", [64, 64, 3, 3]], ["conv.2.bias", [64]], ["conv.4.weight", [64, 64, 3, 3]], ["conv.4.bias", [64]], ["conv.6.weight", [64, 64, 3, 3]], ["conv.6.bias", [64]], ["conv.8.weight", [2, 64, 3, 3]], ["conv.8.bias", [2]]], "output_shape": [[1, 218, 170, 2]], "num_parameters": [1152, 64, 36864, 64, 36864, 64, 36864, 64, 1152, 2]}, {"name": "conv_blocks.3", "id": 139679411627176, "class_name": "cnn_layer(\n  (conv): Sequential(\n    (0): Conv2d(2, 64, kernel_size=(3, 3), stride=(1, 1), padding=(1, 1))\n    (1): ReLU(inplace=True)\n    (2): Conv2d(64, 64, kernel_size=(3, 3), stride=(1, 1), padding=(1, 1))\n    (3): ReLU(inplace=True)\n    (4): Conv2d(64, 64, kernel_size=(3, 3), stride=(1, 1), padding=(1, 1))\n    (5): ReLU(inplace=True)\n    (6): Conv2d(64, 64, kernel_size=(3, 3), stride=(1, 1), padding=(1, 1))\n    (7): ReLU(inplace=True)\n    (8): Conv2d(64, 2, kernel_size=(3, 3), stride=(1, 1), padding=(1, 1))\n  )\n)", "parameters": [["conv.0.weight", [64, 2, 3, 3]], ["conv.0.bias", [64]], ["conv.2.weight", [64, 64, 3, 3]], ["conv.2.bias", [64]], ["conv.4.weight", [64, 64, 3, 3]], ["conv.4.bias", [64]], ["conv.6.weight", [64, 64, 3, 3]], ["conv.6.bias", [64]], ["conv.8.weight", [2, 64, 3, 3]], ["conv.8.bias", [2]]], "output_shape": [[1, 218, 170, 2]], "num_parameters": [1152, 64, 36864, 64, 36864, 64, 36864, 64, 1152, 2]}, {"name": "conv_blocks.4", "id": 139679411539024, "class_name": "cnn_layer(\n  (conv): Sequential(\n    (0): Conv2d(2, 64, kernel_size=(3, 3), stride=(1, 1), padding=(1, 1))\n    (1): ReLU(inplace=True)\n    (2): Conv2d(64, 64, kernel_size=(3, 3), stride=(1, 1), padding=(1, 1))\n    (3): ReLU(inplace=True)\n    (4): Conv2d(64, 64, kernel_size=(3, 3), stride=(1, 1), padding=(1, 1))\n    (5): ReLU(inplace=True)\n    (6): Conv2d(64, 64, kernel_size=(3, 3), stride=(1, 1), padding=(1, 1))\n    (7): ReLU(inplace=True)\n    (8): Conv2d(64, 2, kernel_size=(3, 3), stride=(1, 1), padding=(1, 1))\n  )\n)", "parameters": [["conv.0.weight", [64, 2, 3, 3]], ["conv.0.bias", [64]], ["conv.2.weight", [64, 64, 3, 3]], ["conv.2.bias", [64]], ["conv.4.weight", [64, 64, 3, 3]], ["conv.4.bias", [64]], ["conv.6.weight", [64, 64, 3, 3]], ["conv.6.bias", [64]], ["conv.8.weight", [2, 64, 3, 3]], ["conv.8.bias", [2]]], "output_shape": [[1, 218, 170
…
