…
allel=False, data_path=PosixPath('/home/ubuntu/volume1/MIDL-challenge/Data2'), device='cuda:0', drop_prob=0.0, dropout=0.0, exp_dir=PosixPath('/home/ubuntu/volume1/MIDL-challenge/Amrit/experiments/varnet/acc_5x/12-channels/pretext/SSIM_loss'), loss='SSIM', lr=0.001, lr_gamma=0.1, lr_step_size=40, num_chans=32, num_epochs=150, num_pools=4, report_interval=5000, residual='False', resume='False', sample_rate=1.0, seed=42, weight_decay=0.0)
training VarNet with 12-channels data, using SSIM loss
INFO:root:network(
  (conv_blocks): ModuleList(
    (0): cnn_layer(
      (conv): Sequential(
        (0): Conv2d(2, 64, kernel_size=(3, 3), stride=(1, 1), padding=(1, 1))
        (1): ReLU(inplace=True)
        (2): Conv2d(64, 64, kernel_size=(3, 3), stride=(1, 1), padding=(1, 1))
        (3): ReLU(inplace=True)
        (4): Conv2d(64, 64, kernel_size=(3, 3), stride=(1, 1), padding=(1, 1))
        (5): ReLU(inplace=True)
        (6): Conv2d(64, 64, kernel_size=(3, 3), stride=(1, 1), padding=(1, 1))
        (7): ReLU(inplace=True)
        (8): Conv2d(64, 2, kernel_size=(3, 3), stride=(1, 1), padding=(1, 1))
      )
    )
    (1): cnn_layer(
      (conv): Sequential(
        (0): Conv2d(2, 64, kernel_size=(3, 3), stride=(1, 1), padding=(1, 1))
        (1): ReLU(inplace=True)
        (2): Conv2d(64, 64, kernel_size=(3, 3), stride=(1, 1), padding=(1, 1))
        (3): ReLU(inplace=True)
        (4): Conv2d(64, 64, kernel_size=(3, 3), stride=(1, 1), padding=(1, 1))
        (5): ReLU(inplace=True)
        (6): Conv2d(64, 64, kernel_size=(3, 3), stride=(1, 1), padding=(1, 1))
        (7): ReLU(inplace=True)
        (8): Conv2d(64, 2, kernel_size=(3, 3), stride=(1, 1), padding=(1, 1))
      )
    )
    (2): cnn_layer(
      (conv): Sequential(
        (0): Conv2d(2, 64, kernel_size=(3, 3), stride=(1, 1), padding=(1, 1))
        (1): ReLU(inplace=True)
        (2): Conv2d(64, 64, kernel_size=(3, 3), stride=(1, 1), padding=(1, 1))
        (3): ReLU(inplace=True)
        (4): Conv2d(64, 64, kernel_size=(3, 3), stride=(1, 1), padding=(1, 1))
        (5): ReLU(inplace=True)
        (6): Conv2d(64, 64, kernel_size=(3, 3), stride=(1, 1), padding=(1, 1))
        (7): ReLU(inplace=True)
        (8): Conv2d(64, 2, kernel_size=(3, 3), stride=(1, 1), padding=(1, 1))
      )
    )
    (3): cnn_layer(
      (conv): Sequential(
        (0): Conv2d(2, 64, kernel_size=(3, 3), stride=(1, 1), padding=(1, 1))
        (1): ReLU(inplace=True)
        (2): Conv2d(64, 64, kernel_size=(3, 3), stride=(1, 1), padding=(1, 1))
        (3): ReLU(inplace=True)
        (4): Conv2d(64, 64, kernel_size=(3, 3), stride=(1, 1), padding=(1, 1))
        (5): ReLU(inplace=True)
        (6): Conv2d(64, 64, kernel_size=(3, 3), stride=(1, 1), padding=(1, 1))
        (7): ReLU(inplace=True)
        (8): Conv2d(64, 2, kernel_size=(3, 3), stride=(1, 1), padding=(1, 1))
      )
    )
    (4): cnn_layer(
      (conv): Sequential(
        (0): Conv2d(2, 64, kernel_size=(3, 3), stride=(1, 1), padding=(1, 1))
        (1): ReLU(inplace=True)
        (2): Conv2d(64, 64, kernel_size=(3, 3), stride=(1, 1), padding=(1, 1))
        (3): ReLU(inplace=True)
        (4): Conv2d(64, 64, kernel_size=(3, 3), stride=(1, 1), padding=(1, 1))
        (5): ReLU(inplace=True)
        (6): Conv2d(64, 64, kernel_size=(3, 3), stride=(1, 1), padding=(1, 1))
        (7): ReLU(inplace=True)
        (8): Conv2d(64, 2, kernel_size=(3, 3), stride=(1, 1), padding=(1, 1))
      )
    )
  )
  (dc_blocks): ModuleList(
    (0): dataConsistencyTerm()
    (1): dataConsistencyTerm()
    (2): dataConsistencyTerm()
    (3): dataConsistencyTerm()
    (4): dataConsistencyTerm()
  )
  (wa_blocks): ModuleList(
    (0): weightedAverageTerm()
    (1): weightedAverageTerm()
    (2): weightedAverageTerm()
    (3): weightedAverageTerm()
…
